----------------------------------------------------------------
        Layer (type)               Output Shape         Param #
================================================================
            Conv2d-1         [-1, 64, 100, 100]           1,792
              ReLU-2         [-1, 64, 100, 100]               0
            Conv2d-3         [-1, 64, 100, 100]          36,928
              ReLU-4         [-1, 64, 100, 100]               0
         MaxPool2d-5           [-1, 64, 50, 50]               0
            Conv2d-6          [-1, 128, 50, 50]          73,856
              ReLU-7          [-1, 128, 50, 50]               0
            Conv2d-8          [-1, 128, 50, 50]         147,584
              ReLU-9          [-1, 128, 50, 50]               0
        MaxPool2d-10          [-1, 128, 25, 25]               0
           Conv2d-11          [-1, 256, 25, 25]         295,168
             ReLU-12          [-1, 256, 25, 25]               0
           Conv2d-13          [-1, 256, 25, 25]         590,080
             ReLU-14          [-1, 256, 25, 25]               0
        MaxPool2d-15          [-1, 256, 12, 12]               0
           Conv2d-16          [-1, 512, 12, 12]       1,180,160
             ReLU-17          [-1, 512, 12, 12]               0
           Conv2d-18          [-1, 512, 12, 12]       2,359,808
             ReLU-19          [-1, 512, 12, 12]               0
        MaxPool2d-20            [-1, 512, 6, 6]               0
           Conv2d-21            [-1, 512, 6, 6]       2,359,808
             ReLU-22            [-1, 512, 6, 6]               0
           Conv2d-23            [-1, 512, 6, 6]       2,359,808
             ReLU-24            [-1, 512, 6, 6]               0
        MaxPool2d-25            [-1, 512, 3, 3]               0
AdaptiveAvgPool2d-26            [-1, 512, 7, 7]               0
      BatchNorm1d-27                [-1, 25088]          50,176
           Linear-28                   [-1, 42]       1,053,738
              VGG-29                   [-1, 42]               0
================================================================
Total params: 10,508,906
Trainable params: 5,823,530
Non-trainable params: 4,685,376
----------------------------------------------------------------
Input size (MB): 0.11
Forward/backward pass size (MB): 39.66
Params size (MB): 40.09
Estimated Total Size (MB): 79.87
----------------------------------------------------------------
VGG(
…
